models/dql_model.pth (torch, 17067 bytes, 4 tensors)

linear1.weight f4 [256, 11]
0.1428084 -0.027545085 0.026702 -0.33622006 -0.49284673 0.18629043 0.456722 0.25066647
0.42166537 -0.2542928 -0.51720256 0.5247739 -0.3374356 0.28882632 0.18739216 0.2909806
0.07682698 0.030822981 -0.21375369 -0.24312876 -0.28867978 0.07642143 0.21120101 -0.10057225
0.026526868 -0.40125892 0.45389035 -0.3618133 -0.054011907 0.4712717 -0.35755274 -0.35312647
0.332109 -0.12234508 0.02531014 0.04047913 -0.22916123 0.14096342 0.23951842 -0.35546717
0.2589224 -0.07792844 -0.2108459 0.4538789 0.13029337 0.14546145 0.030566137 -0.6209882
-0.5326933 0.348645 0.3750873 -0.30695364 -0.30062652 0.54207665 0.55059284 -0.13399066
-0.018367708 -0.09577981 -0.23089282 -0.1319257 -0.12259847 -0.100910276 -0.1450654 -0.08726291
0.042110175 -0.07089661 -0.038278922 -0.14282194 0.031623717 0.26235294 -0.42400566 -0.09687623
0.48993105 0.27582836 -0.331432 0.57554036 -0.14804672 0.046714358 0.5666929 -0.24143738
-0.44428 -0.23779471 0.16597836 0.2626022 -0.26238707 -0.46225885 0.13295777 -0.0698419
-0.015619943 0.008987056 0.31713653 -0.42116967 -0.29961336 0.43993217 -0.12154381 -0.3701825
0.20636924 0.36298928 -0.28868422 0.018794533 0.5439166 -0.028552366 -0.09021233 -0.1025016
-0.13892868 0.06533763 0.28756136 0.28425705 0.20807411 0.16493393 0.48923722 0.0020507276
-0.287168 -0.079870984 0.27232638 -0.34279114 0.052596606 0.073022865 -0.36835548 0.2756044
-0.1840007 -0.30483413 -0.038624942 -0.096751615 0.13306828 -0.17901275 -0.2938754 -0.2883487
-0.21700495 0.23524402 -0.14497668 -0.24902968 -0.06589047 0.2051824 0.33942902 0.33156484
-0.48182166 0.007826632 -0.009491346 0.21034342 0.14037986 0.59459114 -0.22179192 -0.06704172
-0.11775406 -0.43705854 -0.2312166 0.17744939 0.018247068 -0.11709505 0.39493784 0.0067490926
0.1183025 0.091869816 0.1763672 0.1278168 -0.12955381 -0.14259869 -0.10685455 -0.0022663886
0.07028957 0.0720668 0.1577703 0.30517235 0.24208413 0.17638665 -0.1950408 0.47892502
-0.022721173 -0.25877315 0.040616427 -0.05070666 0.13834621 0.44944936 0.4102254 0.23232341
0.3691012 -0.0009323977 0.1764075 -0.19784154 -0.30188102 0.30989978 0.44182894 0.26397553
0.49645105 -0.11009106 -0.25273037 -0.022427788 -0.108701035 -0.16557166 -0.19096619 0.5053016
0.4462494 0.60507476 -0.9550022 -0.08890927 0.05790027 0.1935908 0.39468026 0.2173124
0.29284355 -0.085911244 -0.0524873 0.008097735 -0.0691186 0.2465896 0.20503512 0.19330166
0.23512101 -0.37993902 0.015812242 -0.1253044 -0.37778315 -0.059557986 -0.40810323 0.57582164
-0.49157432 0.41736692 -0.05644347 0.22228906 -0.09972493 -0.1965369 0.004080417 0.027268624
-0.17485939 -0.43613267 0.45344236 0.21585645 -0.27339217 0.4595542 -0.31966448 -0.18317658
0.02992174 0.037869904 0.02655916 0.42912242 -0.55346584 -0.10078399 -0.005522134 -0.43262294
0.5681708 -0.10132336 -0.13351522 0.499192 0.16935264 0.20134363 -0.24048966 0.1053084
0.13098416 0.42753142 -0.017859489 0.23035061 0.23640525 -0.053313386 0.70218813 -0.020513536
00000000: 5d3c 123e 3ba6 e1bc 27be da3c 0925 acbe
00000010: 6856 fcbe ebc2 3e3e 77d7 e93e 5b57 803e
00000020: 86e4 d73e aa32 82be 6367 04bf 9557 063f
00000030: 5cc4 acbe 0be1 933e bbe3 3f3e 69fb 943e
00000040: 7757 9d3d 7a80 fc3c 3fe2 5abe bff6 78be
00000050: d6cd 93be d782 9c3d 1445 583e d3f8 cdbd
00000060: e04e d93c cf71 cdbe 5164 e83e 983f b9be
00000070: 973b 5dbd 864a f13e 2711 b7be fecc b4be
00000080: 310a aa3e 0f90 fabd 3657 cf3c 72cd 253d
00000090: 3ea9 6abe b758 103e 5144 753e cbff b5be
000000a0: 7a91 843e f298 9fbd fde7 57be d162 e83e
000000b0: a06b 053e d9f3 143e d665 fa3c 15f9 1ebf
000000c0: 975e 08bf 9981 b23e 710b c03e 0729 9dbe
000000d0: b8eb 99be 89c5 0a3f a7f3 0c3f d934 09be
000000e0: e077 96bc 3428 c4bd 2b6f 6cbe 8817 07be
000000f0: e814 fbbd 0caa cebd 068c 14be e6b6 b2bd
00000100: b87b 2c3d 3e32 91bd 5cca 1cbd ea3f 12be
00000110: df87 013d 2053 863e 4517 d9be 0b67 c6bd
00000120: 3ed8 fa3e 6039 8d3e 75b1 a9be 9d56 133f
00000130: 8f99 17be 8e57 3f3d c912 113f 5c3b 77be
00000140: ab78 e3be 7580 73be 3bf6 293e cc73 863e
00000150: 9957 86be 31ad ecbe 1526 083e 4509 8fbd
00000160: caea 7fbc 723e 133c b85f a23e 8da3 d7be
00000170: ec66 99be ca3e e13e f6eb f8bd 9088 bdbe
00000180: 7552 533e bbd9 b93e 6bce 93be fef6 993c
00000190: 1e3e 0b3f a7e6 e9bc 3ec1 b8bd 5cec d1bd
000001a0: 5243 0ebe bccf 853d 3e3b 933e 248a 913e
000001b0: 6111 553e 71e4 283e 4d7d fa3e 8065 063b
000001c0: af07 93be 6693 a3bd 5d6e 8b3e 5282 afbe
000001d0: 8a6f 573d 038d 953d 1799 bcbe 051c 8d3e
000001e0: ae6a 3cbe 3813 9cbe 3035 1ebd b625 c6bd
000001f0: 0d43 083e 1e4f 37be d676 96be 71a2 93be
00000200: 8c36 5ebe cfe3 703e c474 14be a301 7fbe
00000210: 95f1 86bd 561b 523e a4c9 ad3e dec2 a93e
00000220: 54b1 f6be 463b 003c 9781 1bbc 4464 573e
00000230: bdbf 0f3e 2037 183f 6c1d 63be 2b4d 89bd
00000240: 0a29 f1bd 23c6 dfbe 0bc4 6cbe 4bb5 353e
00000250: e07a 953c 88cf efbd 4b35 ca3e 7e27 dd3b
00000260: 9548 f23d 3e26 bc3d 9a99 343e 68e2 023e
00000270: c1a9 04be 6405 12be 8fd6 dabd b187 14bb
00000280: faf3 8f3d c297 933d 8a8e 213e 8d3f 9c3e
00000290: e7e4 773e b49e 343e c7b8 47be a935 f53e
000002a0: c121 babc ea7d 84be 695d 263d c9b1 4fbd
000002b0: a1aa 0d3e 3a1e e63e 1009 d23e 30e6 6d3e
000002c0: d5fa bc3e 276c 74ba 2ba4 343e f996 4abe
000002d0: 2690 9abe 2fab 9e3e 6737 e23e cd27 873e
000002e0: d52e fe3e 6c77 e1bd e065 81be 7bba b7bc
000002f0: a69e debd 9e8b 29be a48c 43be 725b 013f
00000300: cd7a e43e 2ee6 1a3f 067b 74bf 1016 b6bd
00000310: d528 6d3d ab3c 463e 8813 ca3e 2487 5e3e
00000320: 97ef 953e 3cf2 afbd ecfc 56bd 5dac 043c
00000330: 0d8e 8dbd fc81 7c3e baf4 513e dff0 453e
00000340: 90c3 703e 5e87 c2be ad88 813c cc4f 00be
00000350: cb6c c1be 13f3 73bd e8f2 d0be 0c69 133f
00000360: a1af fbbe 1eb1 d53e 4531 67bd be9f 633e
00000370: 963c ccbd f840 49be 05b5 853b 7362 df3c
00000380: 570e 33be c84c dfbe 9929 e83e 7909 5d3e
00000390: 0ffa 8bbe b04a eb3e 10ab a3be a492 3bbe
000003a0: 701e f53c 791d 1b3d 9892 d93c efb5 db3e
000003b0: f0af 0dbf d667 cebd 04f3 b4bb c180 ddbe
000003c0: a473 113f 9f82 cfbd 37b8 08be 1896 ff3e
000003d0: c76a 2d3e 062d 4e3e ec42 76be eeab d73d
000003e0: b620 063e 66e5 da3e 104e 92bc 08e1 6b3e
000003f0: 3814 723e 235f 5abd 9ac2 333f 010c a8bc

linear1.bias f4 [256]
0.04290887 -0.02368856 -0.076260276 -0.10565495 -0.06048161 0.01187551 -0.11552511 0.3366602
-0.08338288 -0.09810737 -0.021477096 0.015142233 -0.16048145 -0.28539535 -0.17181559 -0.21828167
-0.22809005 0.95761925 -0.22394578 0.014371491 -0.13061377 -0.09135637 -0.026593454 -0.06341349
-0.04357721 -0.14589034 -0.2912135 0.026967335 -0.029411234 0.06595925 0.039047845 -0.119954355
0.14412504 0.08363434 0.5200698 -0.05719478 -0.2749775 -0.42977992 0.17174453 -0.26258698
0.51494104 0.007147533 1.1468517 0.038800422 -0.053110983 0.027911585 -0.27164593 -0.0314549
-0.13474056 -0.20284007 0.47459567 0.30538964 -0.027763821 -0.34141088 0.02904634 0.040081087
0.30537274 1.3643091 -0.17463155 -0.037247423 0.13129507 0.19738756 -0.14515033 0.23484154
-0.12399258 0.15950441 0.29044294 -0.12874795 0.0029135498 0.10563902 -0.026839284 0.10742871
-0.083447225 -0.028414132 0.4030269 -0.19055848 -0.2718152 0.42210189 -0.13110283 0.024437943
0.12020781 -0.22604005 0.52071357 -0.446656 -0.2947716 -0.28430077 0.2574135 -0.22894773
-0.46623394 -0.03516 0.22752476 -0.10842285 -0.3351365 -0.11853291 0.001435038 -0.07725405
0.075301416 0.028379312 -0.024997022 0.022416608 -0.08659103 0.1490104 0.10829814 -0.38641858
-0.0012723292 -0.120478086 -0.318697 -0.08521925 0.09444014 -0.07496028 0.36464295 0.4033761
-0.2614747 0.10931999 0.69351506 -0.12113184 -0.30471665 -0.3029479 0.28829893 -0.11785829
-0.04745015 -0.06889969 -0.22054723 -0.22633615 -0.09316043 -0.08890817 0.2598122 -0.2082977
0.69380474 0.20965971 -0.24270847 0.051982 -0.3514594 0.09208736 -0.36431816 -0.27573726
0.07955273 -0.0034321242 -0.21665989 -0.022050252 0.18832058 0.32709464 -0.042543214 -0.18203804
-0.037375364 -0.20516257 -0.05481804 0.4699981 0.00029446298 -0.08912062 -0.101286985 0.23212141
-0.46344572 -0.005188838 -0.0015471942 -0.42643097 -0.22718064 -0.010565775 -0.36812797 -0.11026412
0.022431562 0.23827676 -0.28334436 1.1848449 -0.065391935 -0.0070540365 -0.34049284 -0.25283185
-0.27169928 -0.43925416 0.26252645 -0.114933304 0.0625718 -0.08379868 -0.11947428 -0.13567442
-0.3068877 -0.17800313 -0.12899616 0.003040699 -0.011930425 0.19745997 0.07119123 -0.21397245
-0.033318095 -0.067195125 -0.31703785 0.04449603 0.025067735 -0.41153622 -0.028945267 -0.16304716
-0.14117399 -0.085413344 -0.1649919 -0.07778871 -0.05626608 0.039717782 -0.021070784 -0.4275895
-0.16996977 0.119389646 0.089486994 0.19358166 -0.21849619 -0.51534575 -0.16974497 0.17633833
0.5804474 -0.065311916 -0.034376998 0.03352378 1.9842546 -0.13528378 -0.41119072 0.9011505
-0.03336553 0.36758184 -0.26257586 -0.35782155 -0.24058506 -0.091033705 -0.19374903 0.27167916
0.16889058 -0.16583583 0.61378676 -0.011293955 -0.25887555 -0.023990821 0.42249086 -0.022988671
-0.10660877 0.84951216 0.080678575 -0.26257443 -0.17031817 0.42719746 0.11845392 -0.15431213
0.022007544 0.11580109 0.48635173 1.5052474 -0.21568576 -0.023656813 0.06642519 -0.19874519
-0.09550024 -0.2526568 0.5361931 0.115804516 0.10668802 -0.4493135 0.8730102 -0.26019973
00000000: 36c1 2f3d 830e c2bc 592e 9cbd 9f61 d8bd
00000010: 91bb 77bd 8091 423c 6e98 ecbd ba5e ac3e
00000020: a5c4 aabd 84ec c8bd bcf0 afbc 2117 783c
00000030: 4055 24be 571f 92be 6df0 2fbe 3b85 5fbe
00000040: 7090 69be 8926 753f 0b52 65be 6776 6b3c
00000050: 9ebf 05be 0c19 bbbd 84da d9bc efde 81bd
00000060: 047e 32bd 4764 15be f019 95be 9aea dc3c
00000070: d4ef f0bc a515 873d a2f0 1f3d a1aa f5bd
00000080: 8495 133e 7b48 ab3d 4b23 053f 1345 6abd
00000090: dac9 8cbe 1d0c dcbe ccdd 2f3e cd71 86be
000000a0: 2dd3 033f da35 ea3b 09cc 923f 31ed 1e3d
000000b0: e78a 59bd d6a6 e43c 2d15 8bbe dad6 00bd
000000c0: 6ef9 09be 4fb5 4fbe 34fe f23e 085c 9c3e
000000d0: f470 e3bc 68cd aebe 97f2 ed3c 112c 243d
000000e0: d159 9c3e aea1 ae3f 9dd2 32be c190 18bd
000000f0: 3772 063e f71f 4a3e 4aa2 14be 4d7a 703e
00000100: d2ef fdbd 2055 233e f0b4 943e 81d6 03be
00000110: 41f1 3e3b 4559 d83d 0fde dbbc 9503 dc3d
00000120: 61e6 aabd c1c4 e8bc 8b59 ce3e c321 43be
00000130: 5d2b 8bbe bd1d d83e d23f 06be 1532 c83c
00000140: 832f f63d 0b77 67be 7c4d 053f 18b0 e4be
00000150: 4eec 96be df8f 91be b4cb 833e 4671 6abe
00000160: 37b6 eebe ef03 10bd 40fc 683e cd0c debd
00000170: 0397 abbe 62c1 f2bd e317 bc3a 5f37 9ebd
00000180: a137 9a3d bb7b e83c 8ec6 ccbc 09a3 b73c
00000190: a356 b1bd 2f96 183e 6acb dd3d a8d8 c5be
000001a0: 49c4 a6ba 37bd f6bd 412c a3be 6e87 aebd
000001b0: d569 c13d c684 99bd 7bb2 ba3e 5087 ce3e
000001c0: 03e0 85be 29e3 df3d 348a 313f f813 f8bd
000001d0: d203 9cbe fd1b 9bbe eb9b 933e b05f f1bd
000001e0: 175b 42bd 481b 8dbd 22d7 61be aac4 67be
000001f0: e5ca bebd 7d15 b6bd 1b06 853e fe4b 55be
00000200: 309d 313f 09b1 563e 9288 78be 14eb 543d
00000210: 7df2 b3be 4c98 bc3d e987 babe 6f2d 8dbe
00000220: 8bec a23d 7ded 60bb 17dc 5dbe bba2 b4bc
00000230: 1cd7 403e f378 a73e cb41 2ebd 2e68 3abe
00000240: e916 19bd 2316 52be e288 60bd 97a3 f03e
00000250: 2762 9a39 df84 b6bd 8d6f cfbd 3cb1 6d3e
00000260: c248 edbe 2107 aabb 39cb caba 2955 dabe
00000270: 0ba2 68be 131c 2dbc 457b bcbe 28d2 e1bd
00000280: 65c2 b73c d3fe 733e 8312 91be ffa8 973f
00000290: 35ec 85bd 8c25 e7bb 1455 aebe 2d73 81be
000002a0: 2b1c 8bbe ece5 e0be de69 863e 2762 ebbd
000002b0: a525 803d a49e abbd eeae f4bd 3cee 0abe
000002c0: 6220 9dbe 7446 36be 9217 04be 7746 473b
000002d0: d477 43bc f232 4a3e b5cc 913d 981b 5bbe
000002e0: 8e78 08bd 999d 89bd c952 a2be 7841 363d
000002f0: da5a cd3c e0b4 d2be a01e edbc d6f5 26be
00000300: ea8f 10be 31ed aebd a3f3 28be b04f 9fbd
00000310: 4377 66bd 1daf 223d a39c acbc 03ed dabe
00000320: 8e0c 2ebe 8f82 f43d f544 b73d 453a 463e
00000330: 77bd 5fbe b3ed 03bf a0d1 2dbe 0992 343e
00000340: 3398 143f 41c2 85bd e5ce 0cbd 3b50 093d
00000350: 0efc fd3f d587 0abe 9787 d2be cdb1 663f
00000360: 4baa 08bd b033 bc3e 5870 86be 6334 b7be
00000370: ee5b 76be e16f babd 2566 46be 8819 8b3e
00000380: a7f1 2c3e ded0 29be 2121 1d3f 480a 39bc
00000390: 568b 84be 6688 c4bc b950 d83e bd52 bcbc
000003a0: b355 dabd a179 593f cf3a a53d 2870 86be
000003b0: e367 2ebe a0b9 da3e f897 f23d 0004 1ebe
000003c0: 2a49 b43c 1f29 ed3d 1803 f93e f2ab c03f
000003d0: badc 5cbe efcb c1bc ee09 883d dc83 4bbe
000003e0: a195 c3bd 3b5c 81be f343 093f eb2a ed3d
000003f0: 407f da3d 6b0c e6be 997d 5f3f e638 85be

linear2.weight f4 [3, 256]
-0.7632931 0.018113462 -0.28370485 -0.48254618 0.40893564 0.026650168 0.19447517 0.34824485
0.30567405 0.02420427 -0.3946042 -0.39406577 0.17071243 -0.06293405 0.021901505 -0.18727365
-0.45616502 0.6120968 -0.13633662 0.38364297 -0.18745458 -0.5579133 0.12497224 0.19967274
-0.013971149 -0.13648601 -0.00576246 -0.08356438 0.43414032 0.039116398 0.21339928 -0.6742143
0.16520573 -0.2726365 0.24909034 -0.03712738 -0.2444055 -0.20781262 0.2634299 -0.120817415
0.23105782 -0.11313799 0.5632751 0.6543485 -0.57388085 0.27711213 0.27691367 0.2962232
-0.1930229 -0.16797233 0.25038987 0.3990949 -0.33249047 -0.41379762 0.005302401 0.027273476
0.23383102 0.34448418 -0.028104763 -0.7270778 0.3615915 0.15102644 -0.5674338 0.20641121
-0.5398894 0.59585834 0.5520697 -0.060774285 -0.6647315 -0.37557176 0.52840924 0.22673175
-0.2162548 -0.7001877 0.16225477 -0.024659391 -0.038420595 0.15375766 0.015563724 -0.5533711
0.28106093 -0.06641121 0.4150674 -0.0808953 -0.12664716 -0.6684837 0.55265194 -0.5358652
-0.29543674 0.017574867 0.569096 -0.020323915 -0.11091069 -0.29483604 -0.026017027 -0.058547072
0.41373673 0.18478031 -0.7495897 0.05406917 0.02760626 -0.005475684 0.2018673 -0.1334417
0.06529461 -0.32193404 -0.07094387 0.1901738 0.10259431 -0.0012227508 0.09955357 0.06525988
0.016717775 0.19491918 0.39359108 -0.4828078 -0.105473086 -0.19276196 0.57352924 -0.17234018
0.49380127 0.29350236 -0.019212522 -0.62031287 -0.491039 -0.2228882 0.27693242 -0.14308573
0.1625372 0.12541574 -0.52665544 -0.3007324 -0.27587625 0.0947937 -0.058242124 -0.056984134
0.021235995 -0.068574175 -0.69745576 -0.20513642 0.6480804 0.46213412 -0.34188068 0.044236884
-0.47732803 -0.5846773 -0.08372085 0.3449062 0.09846855 0.028779777 0.3622957 0.18179537
-0.060898528 -0.6822647 -0.024941856 -0.16784395 -0.11216825 -0.0922816 -0.14812607 -0.053076543
0.21021858 0.0028296232 -0.119666316 0.22273704 0.038753364 -0.36140558 -0.093737595 -0.39296347
-0.019715097 -0.13219802 -0.73096293 -0.40759686 0.28295615 0.36175773 -0.19361235 -0.39786556
-0.23309864 -0.4902284 0.33614853 0.36392713 0.07302904 0.3309124 0.3482136 -0.00090272265
0.0676163 -0.011859186 -0.008528522 0.49369314 -0.6269064 -0.35726592 -0.14160499 -0.010921009
0.10515743 0.3244765 0.011664251 0.047091022 -0.34516892 0.33305013 -0.57658124 -0.2513553
-0.3407913 0.68806046 0.2502187 0.50816995 -0.022336712 -0.1933918 -0.11673697 0.53033733
0.21800299 -0.3978194 -0.04648391 0.33294472 0.37053198 -0.03376683 -0.16603972 0.2943293
-0.08959892 0.34435514 -0.047087003 -0.17384069 -0.16442011 0.07287534 -0.54578143 0.13114193
0.2236772 -0.07135586 0.62171894 0.08594559 -0.013506653 0.39777657 0.4137013 0.41640997
-0.7185818 0.26794612 -0.59556735 0.0055158357 -0.045695066 0.48656648 0.10196324 -0.14021641
-0.5578207 0.20124155 0.11360806 0.37251592 -0.7530613 -0.3262342 -0.6578708 -0.08307964
-0.019676052 -0.33419752 0.4331208 0.62914896 0.03900247 -0.112659276 0.20472004 -0.0063756024
00000000: 2d67 43bf af62 943c c341 91be 4b10 f7be
00000010: 0360 d13e 7451 da3c 8024 473e 264d b23e
00000020: 4f81 9c3e 0948 c63c 9009 cabe fdc2 c9be
00000030: 3dcf 2e3e 91e3 80bd c96a b33c aac4 3fbe
00000040: 768e e9be 60b2 1c3f d49b 0bbe da6c c43e
00000050: 18f4 3fbe 68d3 0ebf 72f1 ff3d 0377 4c3e
00000060: 3fe7 64bc fdc2 0bbe 05d3 bcbb cd23 abbd
00000070: a447 de3e 8438 203d 5785 5a3e 4f99 2cbf
00000080: b12b 293e 0397 8bbe 8a11 7f3e e112 18bd
00000090: 6f45 7abe d5cc 54be 49e0 863e 1f6f f7bd
000000a0: 6c9a 6c3e e4b4 e7bd cc32 103f 6283 273f
000000b0: dbe9 12bf a4e1 8d3e a1c7 8d3e 91aa 973e
000000c0: cca7 45be f000 2cbe 1a33 803e 2b56 cc3e
000000d0: 313c aabe 48dd d3be c3bf ad3b a06c df3c
000000e0: 6671 6f3e 3b60 b03e f63b e6bc c521 3abf
000000f0: 8522 b93e ada6 1a3e 5743 11bf 765d 533e
00000100: 3136 0abf 2c8a 183f 7154 0d3f 75ee 78bd
00000110: d82b 2abf f14a c0be d445 073f 5e2c 683e
00000120: e671 5dbe 803f 33bf 1d26 263e 7e02 cabc
00000130: ea5e 1dbd a672 1d3e fdfe 7e3c baa9 0dbf
00000140: 38e7 8f3e 9a02 88bd b783 d43e 6fac a5bd
00000150: cbaf 01be bf21 2bbf 997a 0d3f 762e 09bf
00000160: 7c43 97be 2bf9 8f3c 47b0 113f 577e a6bc
00000170: 2525 e3bd c0f4 96be a921 d5bc 0ecf 6fbd
00000180: 4dd5 d33e 0d37 3d3e 1ce5 3fbf a277 5d3d
00000190: 8626 e23c 5e6d b3bb 4db6 4e3e f1a4 08be
000001a0: 2eb9 853d 8ad4 a4be 054b 91bd ecbc 423e
000001b0: f71c d23d b544 a0ba bee2 cb3d f9a6 853d
000001c0: b7f3 883c e598 473e c584 c93e 9532 f7be
000001d0: 4602 d8bd 6463 45be d0d2 123f f279 30be
000001e0: 85d3 fc3e f145 963e 9463 9dbc d3cc 1ebf
000001f0: 7769 fbbe ce3c 64be 16ca 8d3e 1185 12be
00000200: 2770 263e fc6c 003e e4d2 06bf 99f9 99be
00000210: a73f 8dbe 3323 c23d 4b8f 6ebd 3268 69bd
00000220: 1cf7 ad3c 9e70 8cbd 768c 32bf 480f 52be
00000230: 99e8 253f d89c ec3e fc0a afbe bc31 353d
00000240: 5764 f4be 69ad 15bf d675 abbd 8c97 b03e
00000250: e1a9 c93d 91c3 eb3c d27e b93e 9128 3a3e
00000260: bc70 79bd e6a8 2ebf dd52 ccbc 49df 2bbe
00000270: 78b8 e5bd 23fe bcbd 5cae 17be ca66 59bd
00000280: 8a43 573e 3371 393b 9d13 f5bd 2e15 643e
00000290: d9bb 1e3d 270a b9be 7ff9 bfbd 8232 c9be
000002a0: 8e81 a1bc eb5e 07be 6320 3bbf 89b0 d0be
000002b0: a1df 903e 4f38 b93e 5142 46be 09b5 cbbe
000002c0: 69b1 6ebe 38ff fabe a91b ac3e a854 ba3e
000002d0: 4090 953d 5a6d a93e 0e49 b23e b1a4 6cba
000002e0: 6a7a 8a3d 084d 42bc 37bb 0bbc 59c5 fc3e
000002f0: f07c 20bf 8feb b6be e600 11be 08ee 32bc
00000300: c75c d73d c921 a63e 6a1b 3f3c 84e2 403d
00000310: fbb9 b0be 8c85 aa3e d49a 13bf a4b1 80be
00000320: 337c aebe bb24 303f aa1c 803e 6d17 023f
00000330: 7bfb b6bc 8008 46be cb13 efbd 30c4 073f
00000340: 2d3c 5f3e fcae cbbe ea65 3ebd bb77 aa3e
00000350: 5eb6 bd3e 164f 0abd 5106 2abe 54b2 963e
00000360: a37f b7bd 514f b03e 4dde 40bd 4b03 32be
00000370: bf5d 28be ab3f 953d 55b8 0bbf 124a 063e
00000380: a30b 653e 0523 92bd f928 1f3f 3e04 b03d
00000390: 024b 5dbc 5fa9 cb3e a8d0 d33e b033 d53e
000003a0: faf4 37bf 3c30 893e 1a77 18bf 2fbe b43b
000003b0: c02a 3bbd 3e1f f93e 1ad2 d03d e494 0fbe
000003c0: 56cd 0ebf 4412 4e3e 58ab e83d 68ba be3e
000003d0: a0c8 40bf 2b08 a7be 396a 28bf a925 aabd
000003e0: ac2f a1bc f01b abbe 02c2 dd3e e80f 213f
000003f0: 0ec1 1f3d e8b9 e6bd 21a2 513e 6eea d0bb

linear2.bias f4 [3]
0.2475393 0.18967058 0.18099055
00000000: f17a 7d3e 0139 423e 9655 393e
